…
n","                                       embeddings=embeddings,\n","                                       tag_dictionary=tag_dictionary,\n","                                       tag_type=tag_type,\n","                                       use_crf=True)\n","print(tagger)"],"execution_count":null,"outputs":[{"output_type":"stream","text":["SequenceTagger(\n","  (embeddings): StackedEmbeddings(\n","    (list_embedding_0): WordEmbeddings('glove')\n","    (list_embedding_1): FlairEmbeddings(\n","      (lm): LanguageModel(\n","        (drop): Dropout(p=0.05, inplace=False)\n","        (encoder): Embedding(300, 100)\n","        (rnn): LSTM(100, 2048)\n","        (decoder): Linear(in_features=2048, out_features=300, bias=True)\n","      )\n","    )\n","    (list_embedding_2): FlairEmbeddings(\n","      (lm): LanguageModel(\n","        (drop): Dropout(p=0.05, inplace=False)\n","        (encoder): Embedding(300, 100)\n","        (rnn): LSTM(100, 2048)\n","        (decoder): Linear(in_features=2048, out_features=300, bias=True)\n","      )\n","    )\n","  )\n","  (word_dropout): WordDropout(p=0.05)\n","  (locked_dropout): LockedDropout(p=0.5)\n","  (embedding2nn): Linear(in_features=4196, out_features=4196, bias=True)\n","  (rnn): LSTM(4196, 256, batch_first=True, bidirectional=True)\n","  (linear): Linear(in_features=512, out_features=7, bias=True)\n","  (beta): 1.0\n","  (weights): None\n","  (weight_tensor) None\n",")\n"],"name":"stdout"}]},{"cell_type":"code","metadata":{"colab":{"base_uri":"https://localhost:8080/","height":1000},"id":"eFRNdlFQc_wy","executionInfo":{"status":"error","timestamp":1610561668925,"user_tz":-330,"elapsed":748,"user":{"displayName":"Harsh Kataria","photoUrl":"https://
…
0a5582489e8520b2090fe762e9","version_minor":0,"version_major":2},"text/plain":["HBox(children=(FloatProgress(value=0.0, description='Downloading', max=1344997306.0, style=ProgressStyle(descr…"]},"metadata":{"tags":[]}},{"output_type":"stream","text":["\n","2021-04-02 18:16:21,090 ----------------------------------------------------------------------------------------------------\n","2021-04-02 18:16:21,099 Model: \"SequenceTagger(\n","  (embeddings): StackedEmbeddings(\n","    (list_embedding_0): WordEmbeddings('glove')\n","    (list_embedding_1): CharacterEmbeddings(\n","      (char_embedding): Embedding(275, 25)\n","      (char_rnn): LSTM(25, 25, bidirectional=True)\n","    )\n","    (list_embedding_2): FlairEmbeddings(\n","      (lm): LanguageModel(\n","        (drop): Dropout(p=0.1, inplace=False)\n","        (encoder): Embedding(11854, 100)\n","        (rnn): LSTM(100, 2048)\n","        (decoder): Linear(in_features=2048, out_features=11854, bias=True)\n","      )\n","    )\n","    (list_embedding_3): FlairEmbeddings(\n","      (lm): LanguageModel(\n","        (drop): Dropout(p=0.1, inplace=False)\n","        (encoder): Embedding(11854, 100)\n","        (rnn): LSTM(100, 2048)\n","        (decoder): Linear(in_features=2048, out_features=11854, bias=True)\n","      )\n","    )\n","    (list_embedding_4): TransformerWordEmbeddings(\n","      (model): BertModel(\n","        (embeddings): BertEmbeddings(\n","          (word_embeddings): Embedding(30522, 1024, padding_idx=0)\n","          (position_embeddings): Embedding(512, 1024)\n","          (token_type_embeddings): Embedding(2, 1024)\n","          (LayerNorm): LayerNorm((1024,), eps=1e-12, elementwise_affine=True)\n","          (dropout): Dropout(p=0.1, inplace=False)\n","        )\n","        (encoder): BertEncoder(\n","          (layer): ModuleList(\n","            (0): BertLayer(\n","              (attention): BertAttention(\n","                (self): BertSelfAttention(\n","                  (query): Linear(in_features=1024, out_features=1024, bias=True)\n","                  (key): Linear(in_features=1024, out_features=1024, bias=True)\n","                  (value): Linear(in_features=1024, out_features=1024, bias=True)\n","                  (dropout): Dropout(p=0.1, inplace=False)\n","                )\n","                (output): BertSelfOutput(\n","                  (dense): Linear(in_features=1024, out_features=1024, bias=True)\n","                  (LayerNorm): LayerNorm((1024,), eps=1e-12, elementwise_affine=True)\n","                  (dropout): Dropout(p=0.1, inplace=False)\n","                )\n","              )\n","              (intermediate): BertIntermediate(\n","                (dense): Linear(in_features=1024, out_features=4096, bias=True)\n","              )\n","              (output): BertOutput(\n","                (dense): Linear(in_features=4096, out_features=1024, bias=True)\n","                (LayerNorm): LayerNorm((1024,), eps=1e-12, elementwise_affine=True)\n","                (dropout): Dropout(p=0.1, inplace=False)\n","              )\n","            )\n","            (1): BertLayer(\n","              (attention): BertAttention(\n","                (self): BertSelfAttention(\n","                  (query): Linear(in_features=1024, out_features=1024, bias=True)\n","                  (key): Linear(in_features=1024, out_features=1024, bias=True)\n","                  (value): Linear(in_features=1024, out_features=1024, bias=True)\n","                  (dropout): Dropout(p=0.1, inplace=False)\n","                )\n","                (output): BertSelfOutput(\n","                  (dense): Linear(in_features=1024, out_features=1024, bias=True)\n","                  (LayerNorm): LayerNorm((1024,), eps=1e-12, elementwise_affine=True)\n","                  (dropout): Dropout(p=0.1, inplace=False)\n","                )\n","              )\n","              (intermediate): BertIntermediate(\n","                (dense): Linear(in_features=1024, out_features=4096, bias=True)\n","              )\n","              (output): BertOutput(\n","                (dense): Linear(in_features=4096, out_features=1024, bias=True)\n","                (LayerNorm): LayerNorm((1024,), eps=1e-12, elementwise_affine=True)\n","                (dropout): Dropout(p=0.1, inplace=False)\n","              )\n","            )\n","            (2): BertLayer(\n","              (attention): BertAttention(\n","                (self): BertSelfAttention(\n","                  (query): Linear(in_features=1024, out_features=1024, bias=True)\n","                  (key): Linear(in_features=1024, out_features=1024, bias=True)\n","                  (value): Linear(in_features=1024, out_features=1024, bias=True)\n","                  (dropout): Dropout(p=0.1, inplace=False)\n","                )\n","                (output): BertSelfOutput(\n","                  (dense): Linear(in_features=1024, out_features=1024, bias=True)\n","                  (LayerNorm): LayerNorm((1024,), eps=1e-12, elementwise_affine=True)\n","                  (dropout): Dropout(p=0.1, inplace=False)\n","                )\n","              )\n","              (intermediate): BertIntermediate(\n","                (dense): Linear(in_features=1024, out_features=4096, bias=True)\n","              )\n","              (output): BertOutput(\n","                (dense): Linear(in_features=4096, out_features=1024, bias=True)\n","                (LayerNorm): LayerNorm((1024,), eps=1e-12, elementwise_affine=True)\n","                (dropout): Dropout(p=0.1, inplace=False)\n","              )\n","            )\n","            (3): BertLayer(\n","              (attention): BertAttention(\n","                (self): BertSelfAttention(\n","                  (query): Linear(in_features=1024, out_features=1024, bias=True)\n","                  (key): Linear(in_features=1024, out_features=1024, bias=True)\n","                  (value): Linear(in_features=1024, out_features=1024, bias=True)\n","                  (dropout): Dropout(p=0.1, inplace=False)\n","                )\n","                (output): BertSelfOutput(\n","                  (dense): Linear(in_features=1024, out_features=1024, bias=True)\n","                  (LayerNorm): LayerNorm((1024,), eps=1e-12, elementwise_affine=True)\n","                  (dropout): Dropout(p=0.1, inplace=False)\n","                )\n","              )\n","              (intermediate): BertIntermediate(\n","                (dense): Linear(in_features=1024, out_features=4096, bias=True)\n","              )\n","              (output): BertOutput(\n","                (dense): Linear(in_features=4096, out_features=1024, bias=True)\n","                (LayerNorm): LayerNorm((1024,), eps=1e-12, elementwise_affine=True)\n","                (dropout): Dropout(p=0.1, inplace=False)\n","              )\n","            )\n","            (4): BertLayer(\n","              (attention): BertAttention(\n","                (self): BertSelfAttention(\n","                  (query): Linear(in_features=1024, out_features=1024, bias=True)\n","                  (key): Linear(in_features=1024, out_features=1024, bias=True)\n","                  (value): Linear(in_features=1024, out_features=1024, bias=True)\n","                  (dropout): Dropout(p=0.1, inplace=False)\n","                )\n","                (output): BertSelfOutput(\n","                  (dense): Linear(in_features=1024, out_features=1024, bias=True)\n","                  (LayerNorm): LayerNorm((1024,), eps=1e-12, elementwise_affine=True)\n","                  (dropout): Dropout(p=0.1, inplace=False)\n","                )\n","              )\n","              (intermediate): BertIntermediate(\n","                (dense): Linear(in_features=1024, out_features=4096, bias=True)\n","              )\n","              (output): BertOutput(\n","                (dense): Linear(in_features=4096, out_features=1024, bias=True)\n","                (LayerNorm): LayerNorm((1024,), eps=1e-12, elementwise_affine=True)\n","                (dropout): Dropout(p=0.1, inplace=False)\n","              )\n","            )\n","            (5): BertLayer(\n","              (attention): BertAttention(\n","                (self): BertSelfAttention(\n","                  (query): Linear(in_features=1024, out_features=1024, bias=True)\n","                  (key): Linear(in_features=1024, out_features=1024, bias=True)\n","                  (value): Linear(in_features=1024, out_features=1024, bias=True)\n","                  (dropout): Dropout(p=0.1, inplace=False)\n","                )\n","                (output): BertSelfOutput(\n","                  (dense): Linear(in_features=1024, out_features=1024, bias=True)\n","                  (LayerNorm): LayerNorm((1024,), eps=1e-12, elementwise_affine=True)\n","                  (dropout): Dropout(p=0.1, inplace=False)\n","                )\n","              )\n","              (intermediate): BertIntermediate(\n","                (dense): Linear(in_features=1024, out_features=4096, bias=True)\n","              )\n","              (output): BertOutput(\n","                (dense): Linear(in_features=4096, out_features=1024, bias=True)\n","                (LayerNorm): LayerNorm((1024,), eps=1e-12, elementwise_affine=True)\n","                (dropout): Dropout(p=0.1, inplace=False)\n","              )\n","            )\n","            (6): BertLayer(\n","              (attention): BertAttention(\n","                (self): BertSelfAttention(\n","                  (query): Linear(in_features=1024, out_features=1024, bias=True)\n","                  (key): Linear(in_features=1024, out_features=1024, bias=True)\n","                  (value): Linear(in_features=1024, out_features=1024, bias=True)\n","                  (dropout): Dropout(p=0.1, inplace=False)\n","                )\n","                (output): BertSelfOutput(\n","                  (dense): Linear(in_features=1024, out_features=1024, bias=True)\n","                  (LayerNorm): LayerNorm((1024,), eps=1e-12, elementwise_affine=True)\n","                  (dropout): Dropout(p=0.1, inplace=False)\n","                )\n","              )\n","              (intermediate): BertIntermediate(\n","                (dense): Linear(in_features=1024, out_features=4096, bias=True)\n","              )\n","              (output): BertOutput(\n","                (dense): Linear(in_features=4096, out_features=1024, bias=True)\n","                (LayerNorm): LayerNorm((1024,), eps=1e-12, elementwise_affine=True)\n","                (dropout): Dropout(p=0.1, inplace=False)\n","              )\n","            )\n","            (7): BertLayer(\n","              (attention): BertAttention(\n","                (self): BertSelfAttention(\n","                  (query): Linear(in_features=1024, out_features=1024, bias=True)\n","                  (key): Linear(in_features=1024, out_features=1024, bias=True)\n","                  (value): Linear(in_features=1024, out_features=1024, bias=True)\n","                  (dropout): Dropout(p=0.1, inplace=False)\n","                )\n","                (output): BertSelfOutput(\n","                  (dense): Linear(in_features=1024, out_features=1024, bias=True)\n","                  (LayerNorm): LayerNorm((1024,), eps=1e-12, elementwise_affine=True)\n","                  (dropout): Dropout(p=0.1, inplace=False)\n","                )\n","              )\n","              (intermediate): BertIntermediate(\n","                (dense): Linear(in_features=1024, out_features=4096, bias=True)\n","              )\n","              (output): BertOutput(\n","                (dense): Linear(in_features=4096, out_features=1024, bias=True)\n","                (LayerNorm): LayerNorm((1024,), eps=1e-12, elementwise_affine=True)\n","                (dropout): Dropout(p=0.1, inplace=False)\n","              )\n","            )\n","            (8): BertLayer(\n","              (attention): BertAttention(\n","                (self): BertSelfAttention(\n","                  (query): Linear(in_features=1024, out_features=1024, bias=True)\n","                  (key): Linear(in_features=1024, out_features=1024, bias=True)\n","                  (value): Linear(in_features=1024, out_features=1024, bias=True)\n","                  (dropout): Dropout(p=0.1, inplace=False)\n","                )\n","                (output): BertSelfOutput(\n","                  (dense): Linear(in_features=1024, out_features=1024, bias=True)\n","                  (LayerNorm): LayerNorm((1024,), eps=1e-12, elementwise_affine=True)\n","                  (dropout): Dropout(p=0.1, inplace=False)\n","                )\n","              )\n","              (intermediate): BertIntermediate(\n","                (dense): Linear(in_features=1024, out_features=4096, bias=True)\n","              )\n","              (output): BertOutput(\n","                (dense): Linear(in_features=4096, out_features=1024, bias=True)\n","                (LayerNorm): LayerNorm((1024,), eps=1e-12, elementwise_affine=True)\n","                (dropout): Dropout(p=0.1, inplace=False)\n","              )\n","            )\n","            (9): BertLayer(\n","              (attention): BertAttention(\n","                (self): BertSelfAttention(\n","                  (query): Linear(in_features=1024, out_features=1024, bias=True)\n","                  (key): Linear(in_features=1024, out_features=1024, bias=True)\n","                  (value): Linear(in_features=1024, out_features=1024, bias=True)\n","                  (dropout): Dropout(p=0.1, inplace=False)\n","                )\n","                (output): BertSelfOutput(\n","                  (dense): Linear(in_features=1024, out_features=1024, bias=True)\n","                  (LayerNorm): LayerNorm((1024,), eps=1e-12, elementwise_affine=True)\n","                  (dropout): Dropout(p=0.1, inplace=False)\n","                )\n","              )\n","              (intermediate): BertIntermediate(\n","                (dense): Linear(in_features=1024, out_features=4096, bias=True)\n","              )\n","              (output): BertOutput(\n","                (dense): Linear(in_features=4096, out_features=1024, bias=True)\n","                (LayerNorm): LayerNorm((1024,), eps=1e-12, elementwise_affine=True)\n","                (dropout): Dropout(p=0.1, inplace=False)\n","              )\n","            )\n","            (10): BertLayer(\n","              (attention): BertAttention(\n","                (self): BertSelfAttention(\n","                  (query): Linear(in_features=1024, out_features=1024, bias=True)\n","                  (key): Linear(in_features=1024, out_features=1024, bias=True)\n","                  (value): Linear(in_features=1024, out_features=1024, bias=True)\n","                  (dropout): Dropout(p=0.1, inplace=False)\n","                )\n","                (output): BertSelfOutput(\n","                  (dense): Linear(in_features=1024, out_features=1024, bias=True)\n","                  (LayerNorm): LayerNorm((1024,), eps=1e-12, elementwise_affine=True)\n","                  (dropout): Dropout(p=0.1, inplace=False)\n","                )\n","              )\n","              (intermediate): BertIntermediate(\n","                (dense): Linear(in_features=1024, out_features=4096, bias=True)\n","              )\n","              (output): BertOutput(\n","                (dense): Linear(in_features=4096, out_features=1024, bias=True)\n","                (LayerNorm): LayerNorm((1024,), eps=1e-12, elementwise_affine=True)\n","                (dropout): Dropout(p=0.1, inplace=False)\n","              )\n","            )\n","            (11): BertLayer(\n","              (attention): BertAttention(\n","                (self): BertSelfAttention(\n","                  (query): Linear(in_features=1024, out_features=1024, bias=True)\n","                  (key): Linear(in_features=1024, out_features=1024, bias=True)\n","                  (value): Linear(in_features=1024, out_features=1024, bias=True)\n","                  (dropout): Dropout(p=0.1, inplace=False)\n","                )\n","                (output): BertSelfOutput(\n","                  (dense): Linear(in_features=1024, out_features=1024, bias=True)\n","                  (LayerNorm): LayerNorm((1024,), eps=1e-12, elementwise_affine=True)\n","                  (dropout): Dropout(p=0.1, inplace=False)\n","                )\n","              )\n","              (intermediate): BertIntermediate(\n","                (dense): Linear(in_features=1024, out_features=4096, bias=True)\n","              )\n","              (output): BertOutput(\n","                (dense): Linear(in_features=4096, out_features=1024, bias=True)\n","                (LayerNorm): LayerNorm((1024,), eps=1e-12, elementwise_affine=True)\n","                (dropout): Dropout(p=0.1, inplace=False)\n","              )\n","            )\n","            (12): BertLayer(\n","              (attention): BertAttention(\n","                (self): BertSelfAttention(\n","                  (query): Linear(in_features=1024, out_features=1024, bias=True)\n","                  (key): Linear(in_features=1024, out_features=1024, bias=True)\n","                  (value): Linear(in_features=1024, out_features=1024, bias=True)\n","                  (dropout): Dropout(p=0.1, inplace=False)\n","                )\n","                (output): BertSelfOutput(\n","                  (dense): Linear(in_features=1024, out_features=1024, bias=True)\n","                  (LayerNorm): LayerNorm((1024,), eps=1e-12, elementwise_affine=True)\n","                  (dropout): Dropout(p=0.1, inplace=False)\n","                )\n","              )\n","              (intermediate): BertIntermediate(\n","                (dense): Linear(in_features=1024, out_features=4096, bias=True)\n","              )\n","              (output): BertOutput(\n","                (dense): Linear(in_features=4096, out_features=1024, bias=True)\n","                (LayerNorm): LayerNorm((1024,), eps=1e-12, elementwise_affine=True)\n","                (dropout): Dropout(p=0.1, inplace=False)\n","              )\n","            )\n","            (13): BertLayer(\n","              (attention): BertAttention(\n","                (self): BertSelfAttention(\n","                  (query): Linear(in_features=1024, out_features=1024, bias=True)\n","                  (key): Linear(in_features=1024, out_features=1024, bias=True)\n","                  (value): Linear(in_features=1024, out_features=1024, bias=True)\n","                  (dropout): Dropout(p=0.1, inplace=False)\n","                )\n","                (output): BertSelfOutput(\n","                  (dense): Linear(in_features=1024, out_features=1024, bias=True)\n","                  (LayerNorm): LayerNorm((1024,), eps=1e-12, elementwise_affine=True)\n","                  (dropout): Dropout(p=0.1, inplace=False)\n","                )\n","              )\n","              (intermediate): BertIntermediate(\n","                (dense): Linear(in_features=1024, out_features=4096, bias=True)\n","              )\n","              (output): BertOutput(\n","                (dense): Linear(in_features=4096, out_features=1024, bias=True)\n","                (LayerNorm): LayerNorm((1024,), eps=1e-12, elementwise_affine=True)\n","                (dropout): Dropout(p=0.1, inplace=False)\n","              )\n","            )\n","            (14): BertLayer(\n","              (attention): BertAttention(\n","                (self): BertSelfAttention(\n","                  (query): Linear(in_features=1024, out_features=1024, bias=True)\n","                  (key): Linear(in_features=1024, out_features=1024, bias=True)\n","                  (value): Linear(in_features=1024, out_features=1024, bias=True)\n","                  (dropout): Dropout(p=0.1, inplace=False)\n","                )\n","                (output): BertSelfOutput(\n","                  (dense): Linear(in_features=1024, out_features=1024, bias=True)\n","                  (LayerNorm): LayerNorm((1024,), eps=1e-12, elementwise_affine=True)\n","                  (dropout): Dropout(p=0.1, inplace=False)\n","                )\n","              )\n","              (intermediate): BertIntermediate(\n","                (dense): Linear(in_features=1024, out_features=4096, bias=True)\n","              )\n","              (output): BertOutput(\n","                (dense): Linear(in_features=4096, out_features=1024, bias=True)\n","                (LayerNorm): LayerNorm((1024,), eps=1e-12, elementwise_affine=True)\n","                (dropout): Dropout(p=0.1, inplace=False)\n","              )\n","            )\n","            (15): BertLayer(\n","              (attention): BertAttention(\n","                (self): BertSelfAttention(\n","                  (query): Linear(in_features=1024, out_features=1024, bias=True)\n","                  (key): Linear(in_features=1024, out_features=1024, bias=True)\n","                  (value): Linear(in_features=1024, out_features=1024, bias=True)\n","                  (dropout): Dropout(p=0.1, inplace=False)\n","                )\n","                (output): BertSelfOutput(\n","                  (dense): Linear(in_features=1024, out_features=1024, bias=True)\n","                  (LayerNorm): LayerNorm((1024,), eps=1e-12, elementwise_affine=True)\n","                  (dropout): Dropout(p=0.1, inplace=False)\n","                )\n","              )\n","              (intermediate): BertIntermediate(\n","                (dense): Linear(in_features=1024, out_features=4096, bias=True)\n","              )\n","              (output): BertOutput(\n","                (dense): Linear(in_features=4096, out_features=1024, bias=True)\n","                (LayerNorm): LayerNorm((1024,), eps=1e-12, elementwise_affine=True)\n","                (dropout): Dropout(p=0.1, inplace=False)\n","              )\n","            )\n","            (16): BertLayer(\n","              (attention): BertAttention(\n","                (self): BertSelfAttention(\n","                  (query): Linear(in_features=1024, out_features=1024, bias=True)\n","                  (key): Linear(in_features=1024, out_features=1024, bias=True)\n","                  (value): Linear(in_features=1024, out_features=1024, bias=True)\n","                  (dropout): Dropout(p=0.1, inplace=False)\n","                )\n","                (output): BertSelfOutput(\n","                  (dense): Linear(in_features=1024, out_features=1024, bias=True)\n","                  (LayerNorm): LayerNorm((1024,), eps=1e-12, elementwise_affine=True)\n","                  (dropout): Dropout(p=0.1, inplace=False)\n","                )\n","              )\n","              (intermediate): BertIntermediate(\n","                (dense): Linear(in_features=1024, out_features=4096, bias=True)\n","              )\n","              (output): BertOutput(\n","                (dense): Linear(in_features=4096, out_features=1024, bias=True)\n","                (LayerNorm): LayerNorm((1024,), eps=1e-12, elementwise_affine=True)\n","                (dropout): Dropout(p=0.1, inplace=False)\n","              )\n","            )\n","            (17): BertLayer(\n","              (attention): BertAttention(\n","                (self): BertSelfAttention(\n","                  (query): Linear(in_features=1024, out_features=1024, bias=True)\n","                  (key): Linear(in_features=1024, out_features=1024, bias=True)\n","                  (value): Linear(in_features=1024, out_features=1024, bias=True)\n","                  (dropout): Dropout(p=0.1, inplace=False)\n","                )\n","                (output): BertSelfOutput(\n","                  (dense): Linear(in_features=1024, out_features=1024, bias=True)\n","                  (LayerNorm): LayerNorm((1024,), eps=1e-12, elementwise_affine=True)\n","                  (dropout): Dropout(p=0.1, inplace=False)\n","                )\n","              )\n","              (intermediate): BertIntermediate(\n","                (dense): Linear(in_features=1024, out_features=4096, bias=True)\n","              )\n","              (output): BertOutput(\n","                (dense): Linear(in_features=4096, out_features=1024, bias=True)\n","                (LayerNorm): LayerNorm((1024,), eps=1e-12, elementwise_affine=True)\n","                (dropout): Dropout(p=0.1, inplace=False)\n","              )\n","            )\n","            (18): BertLayer(\n","              (attention): BertAttention(\n","                (self): BertSelfAttention(\n","                  (query): Linear(in_features=1024, out_features=1024, bias=True)\n","                  (key): Linear(in_features=1024, out_features=1024, bias=True)\n","                  (value): Linear(in_features=1024, out_features=1024, bias=True)\n","                  (dropout): Dropout(p=0.1, inplace=False)\n","                )\n","                (output): BertSelfOutput(\n","                  (dense): Linear(in_features=1024, out_features=1024, bias=True)\n","                  (LayerNorm): LayerNorm((1024,), eps=1e-12, elementwise_affine=True)\n","                  (dropout): Dropout(p=0.1, inplace=False)\n","                )\n","              )\n","              (intermediate): BertIntermediate(\n","                (dense): Linear(in_features=1024, out_features=4096, bias=True)\n","              )\n","              (output): BertOutput(\n","                (dense): Linear(in_features=4096, out_features=1024, bias=True)\n","                (LayerNorm): LayerNorm((1024,), eps=1e-12, elementwise_affine=True)\n","                (dropout): Dropout(p=0.1, inplace=False)\n","              )\n","            )\n","            (19): BertLayer(\n","              (attention): BertAttention(\n","                (self): BertSelfAttention(\n","                  (query): Linear(in_features=1024, out_features=1024, bias=True)\n","                  (key): Linear(in_features=1024, out_features=1024, bias=True)\n","                  (value): Linear(in_features=1024, out_features=1024, bias=True)\n","                  (dropout): Dropout(p=0.1, inplace=False)\n","                )\n","                (output): BertSelfOutput(\n","                  (dense): Linear(in_features=1024, out_features=1024, bias=True)\n","                  (LayerNorm): LayerNorm((1024,), eps=1e-12, elementwise_affine=True)\n","                  (dropout): Dropout(p=0.1, inplace=False)\n","                )\n","              )\n","              (intermediate): BertIntermediate(\n","                (dense): Linear(in_features=1024, out_features=4096, bias=True)\n","              )\n","              (output): BertOutput(\n","                (dense): Linear(in_features=4096, out_features=1024, bias=True)\n","                (LayerNorm): LayerNorm((1024,), eps=1e-12, elementwise_affine=True)\n","                (dropout): Dropout(p=0.1, inplace=False)\n","              )\n","            )\n","            (20): BertLayer(\n","              (attention): BertAttention(\n","                (self): BertSelfAttention(\n","                  (query): Linear(in_features=1024, out_features=1024, bias=True)\n","                  (key): Linear(in_features=1024, out_features=1024, bias=True)\n","                  (value): Linear(in_features=1024, out_features=1024, bias=True)\n","                  (dropout): Dropout(p=0.1, inplace=False)\n","                )\n","                (output): BertSelfOutput(\n","                  (dense): Linear(in_features=1024, out_features=1024, bias=True)\n","                  (LayerNorm): LayerNorm((1024,), eps=1e-12, elementwise_affine=True)\n","                  (dropout): Dropout(p=0.1, inplace=False)\n","                )\n","              )\n","              (intermediate): BertIntermediate(\n","                (dense): Linear(in_features=1024, out_features=4096, bias=True)\n","              )\n","              (output): BertOutput(\n","                (dense): Linear(in_features=4096, out_features=1024, bias=True)\n","                (LayerNorm): LayerNorm((1024,), eps=1e-12, elementwise_affine=True)\n","                (dropout): Dropout(p=0.1, inplace=False)\n","              )\n","            )\n","            (21): BertLayer(\n","              (attention): BertAttention(\n","                (self): BertSelfAttention(\n","                  (query): Linear(in_features=1024, out_features=1024, bias=True)\n","                  (key): Linear(in_features=1024, out_features=1024, bias=True)\n","                  (value): Linear(in_features=1024, out_features=1024, bias=True)\n","                  (dropout): Dropout(p=0.1, inplace=False)\n","                )\n","                (output): BertSelfOutput(\n","                  (dense): Linear(in_features=1024, out_features=1024, bias=True)\n","                  (LayerNorm): LayerNorm((1024,), eps=1e-12, elementwise_affine=True)\n","                  (dropout): Dropout(p=0.1, inplace=False)\n","                )\n","              )\n","              (intermediate): BertIntermediate(\n","                (dense): Linear(in_features=1024, out_features=4096, bias=True)\n","              )\n","              (output): BertOutput(\n","                (dense): Linear(in_features=4096, out_features=1024, bias=True)\n","                (LayerNorm): LayerNorm((1024,), eps=1e-12, elementwise_affine=True)\n","                (dropout): Dropout(p=0.1, inplace=False)\n","              )\n","            )\n","            (22): BertLayer(\n","              (attention): BertAttention(\n","                (self): BertSelfAttention(\n","                  (query): Linear(in_features=1024, out_features=1024, bias=True)\n","                  (key): Linear(in_features=1024, out_features=1024, bias=True)\n","                  (value): Linear(in_features=1024, out_features=1024, bias=True)\n","                  (dropout): Dropout(p=0.1, inplace=False)\n","                )\n","                (output): BertSelfOutput(\n","                  (dense): Linear(in_features=1024, out_features=1024, bias=True)\n","                  (LayerNorm): LayerNorm((1024,), eps=1e-12, elementwise_affine=True)\n","                  (dropout): Dropout(p=0.1, inplace=False)\n","                )\n","              )\n","              (intermediate): BertIntermediate(\n","                (dense): Linear(in_features=1024, out_features=4096, bias=True)\n","              )\n","              (output): BertOutput(\n","                (dense): Linear(in_features=4096, out_features=1024, bias=True)\n","                (LayerNorm): LayerNorm((1024,), eps=1e-12, elementwise_affine=True)\n","                (dropout): Dropout(p=0.1, inplace=False)\n","              )\n","            )\n","            (23): BertLayer(\n","              (attention): BertAttention(\n","                (self): BertSelfAttention(\n","                  (query): Linear(in_features=1024, out_features=1024, bias=True)\n","                  (key): Linear(in_features=1024, out_features=1024, bias=True)\n","                  (value): Linear(in_features=1024, out_features=1024, bias=True)\n","                  (dropout): Dropout(p=0.1, inplace=False)\n","                )\n","                (output): BertSelfOutput(\n","                  (dense): Linear(in_features=1024, out_features=1024, bias=True)\n","                  (LayerNorm): LayerNorm((1024,), eps=1e-12, elementwise_affine=True)\n","                  (dropout): Dropout(p=0.1, inplace=False)\n","                )\n","              )\n","              (intermediate): BertIntermediate(\n","                (dense): Linear(in_features=1024, out_features=4096, bias=True)\n","              )\n","              (output): BertOutput(\n","                (dense): Linear(in_features=4096, out_features=1024, bias=True)\n","                (LayerNorm): LayerNorm((1024,), eps=1e-12, elementwise_affine=True)\n","                (dropout): Dropout(p=0.1, inplace=False)\n","              )\n","            )\n","          )\n","        )\n","        (pooler): BertPooler(\n","          (dense): Linear(in_features=1024, out_features=1024, bias=True)\n","          (activation): Tanh()\n","        )\n","      )\n","    )\n","  )\n","  (word_dropout): WordDropout(p=0.05)\n","  (locked_dropout): LockedDropout(p=0.5)\n","  (embedding2nn): Linear(in_features=5270, out_features=5270, bias=True)\n","  (rnn): LSTM(5270, 64, batch_first=True, bidirectional=True)\n","  (linear): Linear(in_features=128, out_features=6, bias=True)\n","  (beta): 1.0\n","  (weights): None\n","  (weight_tensor) None\n",")\"\n","2021-04-02 18:16:21,110 ----------------------------------------------------------------------------------------------------\n","2021-04-02 18:16:21,116 Corpus: \"Corpus: 4806 train + 1042 dev + 534 test sentences\"\n","2021-04-02 18:16:21,120 ---------------------------------
…
